data.pth (torch, 5418 bytes, 6 tensors)

l1.weight f4 [8, 54]
000000 1a fb 5a be ae a6 89 3e 5c a7 5e be dc 5b f5 3e
       -0.2138485 0.2688498 -0.2174353 0.47921646
000010 1f 45 1e 3f 0c 67 34 bf 91 6a 8f bd 4b 1f 51 be
       0.6182422 -0.7046974 -0.07002748 -0.20422094
000020 29 90 a6 be 91 3e a3 be d2 89 0f 3f 33 ef e8 3c
       -0.3253186 -0.31883672 0.5606967 0.028434372
000030 5a 2c e2 3e ac 06 3b 3e 0c 65 d9 3d c8 c6 37 3e
       0.44174463 0.18264264 0.10614976 0.17946923
000040 5a ff 0d 3f 23 63 34 bf 80 76 ec 3e f6 6d 23 3f
       0.5546776 -0.7046377 0.46184158 0.6383966
000050 61 64 40 be a8 59 1d 3f c9 0b 20 3f 83 b3 32 3f
       -0.18788292 0.6146493 0.6251798 0.69805163
000060 39 7b 51 3d ac 7c 02 3f 69 c8 d0 3e fc a2 21 3e
       0.051142905 0.50971484 0.407779 0.1578483
000070 48 92 8d 3e c5 5e a5 3e 41 5a a1 be a2 a1 d4 bb
       0.27650666 0.32298866 -0.3151417 -0.0064889947
000080 7e 6e 61 bd 9c 7b 57 be 39 83 8c 3e 71 2e 1d bd
       -0.055037014 -0.21043247 0.27443865 -0.038374368
000090 26 68 cb 3e cd bb 69 be 5d 9c 79 bc b5 2c c9 3d
       0.39727896 -0.22825547 -0.015235034 0.0982298
0000a0 01 80 d3 be 3b 65 f9 3e 49 21 5e 3c 36 ce 92 3e
       -0.41308597 0.48710045 0.0135577405 0.2867295
0000b0 2e 64 3b 3c a9 55 b8 3e 64 6a 34 bf 0c 86 93 be
       0.011437459 0.36002854 -0.7047484 -0.28813207
0000c0 60 95 00 3f c5 36 e1 3e 63 0c c0 3c 84 9c 97 3e
       0.5022793 0.43987098 0.023443406 0.296116
0000d0 64 0f a6 3d 8e ee 45 3e 87 49 35 3b 23 47 4a be
       0.08108404 0.19329283 0.0027662234 -0.19753699
0000e0 0f 3c 1b bd 13 b9 26 be d2 9b 1b bd 7e f4 7e be
       -0.037899073 -0.16281538 -0.0379904 -0.24897954
0000f0 0a 74 32 3e e4 a2 b4 bd 6c e5 24 3e 41 63 9a be
       0.17427078 -0.088201314 0.16103142 -0.3015385
000100 9d 30 12 be 27 7e 10 3f 3b ee f1 3e 47 fd 28 3f
       -0.14276357 0.56442493 0.47252068 0.6601147
000110 98 29 49 3e 4b 92 b1 3e 3d 70 e1 bd 36 09 7f be
       0.19644773 0.34681925 -0.11007736 -0.24905857
000120 6e 10 16 3f 0f cb 7e be 44 94 85 3e e4 ef 7e be
       0.5861882 -0.24882148 0.2608968 -0.24896199
000130 ad 2a 7f be 8c 2a 67 3e 57 a3 bd 3e 99 94 73 be
       -0.24918623 0.22574824 0.3703868 -0.23787154
000140 6d 26 52 3f 4f 8c 8a be 04 fb b2 3e 74 a6 32 be
       0.82089883 -0.27060172 0.34957135 -0.1744631
000150 a4 f2 ab be 45 12 20 3f 03 cd 94 3d 45 79 d8 3b
       -0.33583558 0.6252788 0.072656654 0.0066062533
000160 a2 fc 11 bc 66 81 97 3e f0 40 fc 3e 96 8d 58 3e
       -0.00891033 0.2959091 0.49268293 0.21147761
000170 2d 22 f8 3d 1e 3c 9a 3a 32 be 36 be da b8 1e 3f
       0.121158935 0.0011767184 -0.17845991 0.6200081
000180 ac ba f4 3e 1a f2 2d 3e ba 59 d6 3e 6f bb 0e bc
       0.4779867 0.16986886 0.4186533 -0.00871168
000190 71 9e 62 3e 9b d2 41 3e 95 ca 8d 3e 07 6f 31 3f
       0.22130753 0.18927996 0.2769362 0.6931004
0001a0 11 37 df 3e 2d 30 10 3f cf ad 8c 3d 11 3f 88 3e
       0.435967 0.5632351 0.06869089 0.26610616
0001b0 02 84 fb 3e 1b d7 21 be 2b 29 9e bd 7e d3 8e 3e
       0.4912415 -0.15804712 -0.07722696 0.2789573
0001c0 56 48 a6 3e 12 af f6 be 5b d9 a8 bd 3a 35 8d be
       0.32477063 -0.48180443 -0.08244582 -0.2757967
0001d0 92 8c cb be f2 e2 a6 bd 9b c0 95 3e 7c e9 b6 3e
       -0.39755684 -0.08148755 0.2924851 0.3572501
0001e0 dc 8f 94 be 0c 20 aa 3e 37 75 74 be 8b 6d 8d 3e
       -0.29016006 0.33227575 -0.23872839 0.27622637
0001f0 85 eb a6 3e f1 9b f6 be b5 ce 3b be 1a 89 cc 3e
       0.32601562 -0.4816585 -0.18340571 0.3994835
000200 47 98 df 3e 12 d1 d3 3e 46 df 03 3f 40 95 e9 3e
       0.43670866 0.41370445 0.51512563 0.4562168
000210 96 de 2f 3e 6f 3a 9f 3e 0d 4b 24 be cb ee f7 bd
       0.17174754 0.3109927 -0.16044255 -0.12106093
000220 ae eb 9d be c2 92 87 be a8 2f a1 be fc d1 4b 3e
       -0.30843872 -0.26479155 -0.3148167 0.19904321
000230 09 3f ba 3e 21 d7 c0 bd b4 fb 9f bd 76 b3 25 3e
       0.36376217 -0.094160326 -0.078116804 0.1618174
000240 48 59 8d be d1 8c 3e be ad d1 0e 3d c1 60 1f bd
       -0.2760718 -0.18608405 0.03486793 -0.03891063
000250 0b 19 ef be e4 58 a7 be 7e 26 a9 3d ee 9c aa bd
       -0.46698794 -0.32685006 0.08259295 -0.08330713
000260 6e d4 54 3e 4a 31 a7 bd 36 20 64 3f 09 17 02 3f
       0.2078416 -0.08163698 0.8911165 0.508164
000270 f9 2f 1d 3e e9 cc 5c be a7 3a a1 3e d9 c6 4a be
       0.15350331 -0.21562542 0.3149006 -0.19802417
000280 57 fc d3 bc d0 14 b3 3e 45 8f 1c 3f 5c 77 f9 be
       -0.025877161 0.34976816 0.6115611 -0.48723876
000290 d5 23 59 3f 91 91 c8 bd e5 2c 26 3f ed 19 3d 3f
       0.848203 -0.097933896 0.64912254 0.73867685
0002a0 06 1b 56 3f ca 3c 13 3f 4f 31 3d 3f a2 93 51 3f
       0.83634984 0.5751463 0.73903364 0.81865895
0002b0 0f e1 56 bd ca 4a a5 be 9c 24 09 3f 72 a4 b0 be
       -0.052460726 -0.32283622 0.53571486 -0.34500462
0002c0 53 f0 dc be 46 01 e7 be fd 3e a2 bd 63 89 2f 3f
       -0.43152103 -0.4511816 -0.0792217 0.6856901
0002d0 da bc 70 3e de 12 ee be 93 1d ca 3e a1 99 e4 be
       0.23509541 -0.4649877 0.39475688 -0.4464846
0002e0 49 69 b5 be 12 3b f4 be be 0b a0 3d d9 cb 7d bd
       -0.3543189 -0.47701317 0.0781474 -0.061961982
0002f0 e0 1c d8 3e 5e fd 1f bf 02 62 8a 3e f6 73 3d bf
       0.4220953 -0.6249598 0.270279 -0.7400507
000300 84 94 88 3e d7 9f 25 be 8b d9 d7 3e c9 3b 4c 3f
       0.26675808 -0.16174255 0.4215816 0.79778725
000310 e6 a8 72 be 85 91 6a be 82 dd ec 3e 5d d5 22 3f
       -0.23697242 -0.22907074 0.46262747 0.63606817
000320 e0 52 5a 3f 99 03 21 3f c9 12 f4 3e 7b 01 f1 3e
       0.8528271 0.62896115 0.47670582 0.47071442
000330 ff 71 a8 be c5 2a 4d be a5 be ac 3e 50 d7 2d be
       -0.32899472 -0.20035847 0.337392 -0.16976666
000340 f2 09 17 3f 71 7b bf 3e 58 5e 72 3e 12 6d c8 3e
       0.5899955 0.37398866 0.23668802 0.39145714
000350 37 5c ae be fc 68 b3 3e cc c0 35 3f 12 3b 75 3f
       -0.3405473 0.35041034 0.7099731 0.9579326
000360 03 5f b6 be aa 8a 8f 3e 1b b6 2a be e9 55 99 3e
       -0.35619363 0.2803548 -0.1667103 0.29948357
000370 a5 ba 42 3e c5 0a 44 3f 97 55 0d 3e f7 24 bd bc
       0.19016512 0.76578933 0.13802181 -0.023088915
000380 2c c2 3b bd 3b a4 65 bd ab f1 ee 3e fa 90 75 be
       -0.045839474 -0.056064826 0.46668753 -0.23981085
000390 18 bc 86 3e 70 10 f6 be 08 ad a8 3e d9 c5 84 be
       0.2631538 -0.48059416 0.32944512 -0.25932196
0003a0 7a 7c e2 3e db e1 67 3f 2e 10 23 3e 1a 46 08 3f
       0.44235593 0.90579003 0.15924141 0.53231966
0003b0 c1 0b 3c be 8c fa d8 3e 42 13 21 3f 44 52 de 3e
       -0.18363859 0.42378652 0.6292001 0.4342214
0003c0 12 b7 ea bd 8d 1a 8f 3e 41 3f 8c 3e 5d 9f a8 3e
       -0.11460699 0.27949944 0.2739201 0.32934085
0003d0 7c e5 d8 3d fb 15 dc 3e 33 a7 4c 3f 97 ec a9 be
       0.10590646 0.4298552 0.79942626 -0.33188316
0003e0 36 48 a4 bd 6f b1 5f be 88 d3 f3 3e e4 07 79 be
       -0.08021586 -0.2184503 0.47622323 -0.24319416
0003f0 5b 29 0b 3e bc 76 24 be b8 09 43 3d 8b 3b 65 bd
       0.13589995 -0.16060919 0.04761669 -0.055964988

l1.bias f4 [8]
000000 5c 69 34 3f 2e dd 7e 3e 86 ae f6 3e 2d dd 84 3f
       0.70473266 0.24889061 0.48180026 1.0379997
000010 ba 0f 5b 3f 7c 89 d4 3e af dd df 3e 66 80 ed 3e
       0.8557087 0.41511142 0.4372382 0.46387023

l2.weight f4 [8, 8]
000000 25 c9 bf 3d 30 31 72 3e c6 c1 ab 3e 3c ac a2 3f
       0.09364537 0.23651576 0.33546275 1.2708812
000010 f7 59 0e 3f f5 16 83 bf 09 25 a7 3e 60 d6 c6 be
       0.55606025 -1.0241381 0.32645443 -0.3883543
000020 0e 68 61 be d0 6a 05 3d d5 e0 9e be 8a 42 9d be
       -0.2201235 0.032572567 -0.31030908 -0.30714828
000030 4a 6a 38 3e ac dc ae be f6 f2 8f be 42 8d 2a be
       0.18009296 -0.34152734 -0.28115052 -0.16655448
000040 e7 48 ba 3e 3f 7d 8f 3e 84 a0 de be dd 66 82 3f
       0.36383745 0.28025243 -0.4348184 1.0187641
000050 c4 eb a5 3f 6f d8 97 3e da e8 3a bf 65 c5 a4 bd
       1.2962575 0.29657313 -0.73011553 -0.080454625
000060 b8 c5 3c be ad cd d1 3e b2 31 af 3f 90 b9 27 be
       -0.18434799 0.4097723 1.3687041 -0.1637938
000070 7e b9 39 bf 5e 69 92 be 43 9e b6 3f 3e f0 6b 3f
       -0.72548664 -0.28596014 1.4267048 0.92163455
000080 05 b6 89 3f c2 98 d2 3e 39 ca 3a 3f 0e ef 81 be
       1.0758673 0.4113217 0.7296482 -0.25377697
000090 3c 61 36 3e df 91 50 bf fc 87 e4 bd c4 7f 89 3f
       0.1781053 -0.8147258 -0.111587495 1.0742116
0000a0 d5 a5 50 3f cf bd 98 bf 96 d0 1d 3f 17 0a f2 be
       0.8150304 -1.1932925 0.616464 -0.47273323
0000b0 a8 5f 3b 3f 76 eb a9 3e df 00 85 be 05 dd 64 3f
       0.73192835 0.33187455 -0.25977227 0.8939975
0000c0 b6 1a 2b be a6 1b 9e bf a4 c0 a6 bf 25 48 1c 3c
       -0.16709408 -1.2352188 -1.3027539 0.009538685
0000d0 49 70 a2 3f a8 da 91 3f e8 03 43 bf 66 d4 64 bf
       1.2690517 1.1394854 -0.76177835 -0.89386594
0000e0 75 2f 22 3f 47 4f 97 3f 99 b0 3b be 07 df da be
       0.63353664 1.1821069 -0.18329085 -0.4274828
0000f0 69 f3 b1 3e 17 d1 9b 3f ad d3 2c 3e 59 48 f5 3e
       0.3475602 1.2173184 0.16877623 0.4790676

l2.bias f4 [8]
000000 f1 82 81 3f d2 45 88 be da 25 05 3f 0a 27 cf 3e
       1.0118085 -0.2661577 0.5201088 0.40459472
000010 2d bc 4f 3e 18 a9 ca 3e 1d c0 41 3f 0a 55 3b be
       0.20286627 0.39582133 0.75683767 -0.18294159

l3.weight f4 [7, 8]
000000 27 8d 8d bf 90 26 21 bd 49 64 9e bf 4b fe f3 3e
       -1.1058701 -0.039343417 -1.2374355 0.47654948
000010 ee cf c5 3e 37 21 0f bf 04 a7 bd be 5e 74 0d 3f
       0.386352 -0.55910057 -0.37041485 0.5525569
000020 a5 a3 98 bf 84 50 e1 3d 5b a5 5f be 3d 43 10 bf
       -1.192494 0.11001685 -0.21840422 -0.563526
000030 98 3a 7f bf fb 30 03 3f 5f 5a 08 3f 63 82 0d 3f
       -0.9969878 0.51246613 0.53262895 0.5527708
000040 44 7f b0 3d 7a 13 63 3e ab d0 8f 3e 8a 1b 43 bf
       0.08618024 0.22175398 0.2808889 -0.76213896
000050 47 ec ab bf 60 c1 cd be 90 ea 81 3f 5f 55 6e bf
       -1.3431481 -0.40186596 1.0149708 -0.93099016
000060 89 ed e5 be 0d ad a5 3e 76 63 8c be cc eb 96 bd
       -0.44907787 0.3235859 -0.27419633 -0.073691934
000070 9e 82 27 3f 22 b0 4a 3f 11 42 56 bf 4c 2f fb be
       0.6543368 0.7917501 -0.8369456 -0.49059522
000080 34 88 a2 be b0 82 1f be 17 10 ad 3e 90 f2 75 bf
       -0.3174454 -0.15577197 0.33801338 -0.96073246
000090 ec f6 9f 3d a2 07 a3 bf 7c 99 50 bf 4b 1a f8 3e
       0.078107685 -1.2736704 -0.814842 0.4845756
0000a0 14 77 56 3f 4f c8 83 3e a8 34 df 3e 10 53 88 bf
       0.8377545 0.2573876 0.4359486 -1.0650349
0000b0 08 f2 4a bf af b5 b2 bf 90 52 94 bf 48 ab d6 bf
       -0.7927556 -1.3961695 -1.1587696 -1.6771021
0000c0 cb 0c bd 3e ca 4a a7 be 90 35 05 bf 01 5a 69 3f
       0.36923823 -0.32674247 -0.52034855 0.9115296
0000d0 18 ff 6a be ea ab b2 bf 22 6a 18 bf 3a f2 9e bf
       -0.22948873 -1.3958714 -0.59536946 -1.2417672

l3.bias f4 [7]
000000 b7 3b eb bd 9d 3c e8 be d9 e6 0d be 9d 3b 75 3e
       -0.11485999 -0.45358744 -0.13857593 0.23948522
000010 65 db ef be 05 58 96 3d ac 2e c1 3e
       -0.46847072 0.07341007 0.3773092
